stock-prediction-LSTM/lstm_model_weights.pth (torch, 127826 bytes, 9 tensors)

lstm.weight_ih_l0 f4 [200, 1]
00000000: 9c28 a73d a224 3f3e 695f 09be e632 dfbc
00000010: da29 ad3d e41f bbbd 033e a13d be2e bbbc
00000020: 757a 2fbd 3691 1d3e 8374 ee3d bdec 683d
00000030: b271 93bd 2b42 3abd 2a99 303e 5916 de3d
00000040: 63d8 633b f29f f13d 9a67 e63d f560 0c3e
00000050: e1ae 49bd 8e28 343e d8e0 e8bb 1c7a 8d3b
00000060: 1e60 733d ac7d 5d3d e33c d83d f35b bfbc
00000070: b2ba 4c3d c261 503c 4e29 ec3c 8776 6e3d
00000080: 887d 8b3d 38bc d43d d971 4d3e 48c4 acbc
00000090: 3fed 483e e149 013e d6a0 dbbb 3575 b33d
000000a0: 10b2 3f3d 8b93 aebd 3c9b ae3d a289 ddbd
000000b0: 349c 17bc e0c1 9abd a421 bcbc c5e2 2f3e
000000c0: 34a6 b93d f7bf a03c f507 053e 2a0b 933d
000000d0: 57d5 00be 7de5 6e3d 000c dfb5 d1da a2bd
000000e0: 7fd0 f23d 3617 2b3d 85da acbc cacd a2bd
000000f0: 4d8b 303e 11a0 133e a54a db3d bd04 27bd
00000100: 23c8 893d 9a1c 86bd 0ee7 d03c b5d4 533e
00000110: 84ff 5bbd 978d 313e d73f 3e3e e324 063d
00000120: a908 2bbd f499 58bd dd0e 193e 4176 63bc
00000130: 5f9c 843d 9cc3 373e a41d 0c3e c545 b23d
00000140: d4df 933c 1ae3 233e ee8d 81bd e61e c7bb
00000150: 2c39 233e fb26 aa3d c314 043d 86dc 2b3d
00000160: 2fc3 1f3e e7bf 5e3d b1bc edbc 09d5 103e
00000170: 21c7 413e 09db 07bd b244 093e 1c5c 353c
00000180: 2e15 1c3e 85cd c33d 6f99 f5bd 6b04 fb3d
00000190: f19a 52be 934b 5d3e f77f c0bd b88e 4c3d
000001a0: 0fd5 5ebe 867a 3cbe 58db 3b3e 14d4 00be
000001b0: 2fac 5cbc 31c4 f53d 5074 0f3c 49b5 edbd
000001c0: 8b3d 1c3e 373d 03be 7cf2 18be f1d3 c33d
000001d0: b1ac 143e ddcf 4f3e 0ae6 5f3d 702b e5bd
000001e0: 8357 cc3d ed52 34be f8a4 b93d 34d1 00be
000001f0: 5a72 37be cd18 16bd 5283 703d f914 d73d
00000200: 4403 f8bd 97bf 70bd 2069 d7bd 45c1 06be
00000210: 7228 fcbd 922a 97bd 0071 32be e375 3c3e
00000220: 4a6f 0f3e 0286 863d 0514 1c3e 94bb 1dbe
00000230: 5eda a1bd f0b9 9e3b 25e0 86bc f5d8 f53d
00000240: 997e d63d 904a a9bd 6455 413e 25aa 34bd
00000250: 6f88 c6bd e690 623c e9ca 083e 670f 433e
00000260: b54d 79bd 243b 9cbd a889 d33d 62f8 12be
00000270: 1915 973d c618 253e dd54 37bd bbe4 a73b
00000280: 499e 133e 4ed4 313e 86ee d03d 72f5 f2bc
00000290: 2fbf 1b3e 7b77 4d3e 9883 823c f618 4c3e
000002a0: 5757 dc3c 7d33 adbd 9617 b83d 7fd7 80bb
000002b0: 3628 68bc 4990 aebd 1c06 cb3d 5a7e 213e
000002c0: 2bbf 7bbd 5a20 b53d 4f9b df3c 5de6 423d
000002d0: 63bc a83d d7a5 3f3e 98cd a83d 182b ef3c
000002e0: acbb 4cbd d5c3 6d3d f0d6 56ba c107 a53d
000002f0: 3ace f23d 26ae b7bd d0c3 ba3d 5151 483b
00000300: e4fc 2b3e f899 ca3d e068 a93d d149 ea3d
00000310: e402 bd3c 1e1b a7bc 9b63 98bd 1cc5 75bc
0.081620425 0.18666318 -0.13415302 -0.02724595 0.08455248 -0.09136942 0.07873156 -0.022849437
-0.042841394 0.15387425 0.116433166 0.056866396 -0.0719942 -0.04547326 0.17245927 0.10844106
0.0034766428 0.11798085 0.11250229 0.13708861 -0.049239043 0.17593595 -0.0071068816 0.004317535
0.059417836 0.05407493 0.10558488 -0.023359274 0.049982734 0.01271862 0.02882829 0.058218505
0.068110526 0.103874624 0.2006296 -0.021089688 0.19621752 0.12625839 -0.0067025227 0.0876259
0.046800673 -0.08524235 0.08525702 -0.10817267 -0.00925355 -0.0755651 -0.02296526 0.1717635
0.09064904 0.019622786 0.12991317 0.07179864 -0.12581383 0.058324326 -1.6618287e-06 -0.07951892
0.11856174 0.041770183 -0.021100292 -0.079494074 0.17240639 0.14416529 0.10707597 -0.040776003
0.06727626 -0.06548424 0.0255008 0.2068661 -0.053710476 0.17339168 0.1857904 0.03275002
-0.041756306 -0.052881196 0.14947076 -0.013883174 0.06475138 0.17945713 0.13683182 0.08704714
0.018051066 0.16004601 -0.06325899 -0.0060766814 0.15939778 0.08308216 0.032246362 0.041958354
0.156018 0.05438223 -0.02902064 0.14143766 0.18923618 -0.033167873 0.13405111 0.011069324
0.15242454 0.09560684 -0.11992156 0.12256702 -0.20566918 0.2161086 -0.09399407 0.049940795
-0.21760963 -0.18406114 0.18345392 -0.12580901 -0.013468786 0.12000311 0.008755758 -0.11606843
0.15257852 -0.1281632 -0.1493625 0.09561909 0.14519002 0.20294137 0.05466274 -0.11189926
0.09977629 -0.17609759 0.090646684 -0.12579805 -0.17914715 -0.036644746 0.058718987 0.10502047
-0.12109998 -0.058776464 -0.10518098 -0.13159664 -0.12312402 -0.073811665 -0.17425919 0.18404345
0.14007297 0.06568529 0.15242012 -0.15403587 -0.07902978 0.004843943 -0.016464302 0.12004272
0.10473365 -0.08266175 0.1888023 -0.044107575 -0.096939914 0.013828492 0.13358654 0.19048844
-0.060865123 -0.07628468 0.1032899 -0.14352563 0.07377071 0.16122732 -0.044758666 0.0051237023
0.1441585 0.17366144 0.10201745 -0.029658053 0.1520965 0.2006511 0.01593189 0.19931397
0.026897116 -0.08457086 0.08988874 -0.003931939 -0.014169743 -0.08523614 0.09913275 0.15770856
-0.06146161 0.08844061 0.027295737 0.047582973 0.08239057 0.18715607 0.08242339 0.029195353
-0.049983665 0.058048088 -0.00081954803 0.080581196 0.11855741 -0.08968763 0.091193795 0.0030566046
0.16795689 0.098926485 0.082719564 0.114398606 0.023072667 -0.020398673 -0.07440873 -0.015000608

lstm.weight_hh_l0 f4 [200, 50]
00000000: 936b 203d 986c 853d fa2f 083e b6af a63d
00000010: 17bc c03d adbd 99bd 7507 9d3c 153c ccbd
00000020: d3e1 ebba cf07 4d3d 3c36 933d 44e3 8a3d
00000030: 7099 153e fa79 24be 1e65 c53a b3e4 893d
00000040: 3bc4 9dbd 204b 2d3d 3ea3 dfbc da8a 853d
00000050: 02cb ddbd 90e5 853c cd84 d2bd e09c 433d
00000060: abe2 13be 63ea b0bd 46a7 623d ae99 d33d
00000070: dcbb 5abd b024 363d ff83 d4bd 42bb 10be
00000080: a711 f3bd a06e d73c 2ebb 40bd 7f3d 89bd
00000090: d882 483d b2db 683d 2c7f e6bb a6e3 e3bd
000000a0: e6c4 81bd c527 14be 2956 88bd 5b0c 713d
000000b0: 88bf 603c 6062 27bd 2369 25bb 63da d53d
000000c0: 3328 b0bd 40c4 b73d 3966 813d ed2c db3c
000000d0: f5d9 f2bd 3858 c8bd 1233 093d dbdb 4d3c
000000e0: a6ac 4fbd a4e7 253d ab2f 13be 5b33 013c
000000f0: bb09 ffbb 61a4 02be d8e7 11bd d360 2ebe
00000100: 333f 063d d88f 8a3d 367c 45bd 628c 113c
00000110: 47fe 1f3e 07b5 13bd c9a7 9ebd d1a4 9dbd
00000120: eb8b 073e b20f 573a 7d23 26be 1727 773d
00000130: 5893 30bd 733d d03d 811c 78bd d0ee 133e
00000140: a335 7f3d 808b a2bc 94d8 2f3d 3234 fe3d
00000150: d3c7 123d 5b53 e3bd 264c e03c 7a96 083d
00000160: 8646 0b3d 5a4d 013d 2dcf 823d 2dc4 973d
00000170: 0873 88bc bf60 853d 0292 0f3e e1e5 b03d
00000180: ba82 d93d ee19 ffbd a3bc 97bd d51c 19be
00000190: b2ee 113d c55a 11be 9e21 2abb 0d54 cd3d
000001a0: c281 3cbd 1522 ebbd d3e4 b23d e4c6 803d
000001b0: 2790 9ebc 73b6 10bd 8c53 773a 562d 613d
000001c0: 4005 8e3d b265 3cb9 3801 c43d f347 99bd
000001d0: cc9d c83c 1d8c 81bd 49de 19be 44f2 a2bd
000001e0: 235b 8bbb 80e9 f23d 1ece 93bb 6b61 7ebd
000001f0: e5b4 063e 2268 b03d ab6b a8bd 71f5 95bd
00000200: b923 e83d f2be 09be 5d87 dfbd d091 94bd
00000210: e6a9 afbd f6e4 6a3d d0d8 303d 57c4 83bb
00000220: fc41 b23d fe53 993d c576 1dbe 8e86 823d
00000230: b167 f7ba b2fa e8bd 106f 51bd 6517 db3d
00000240: 2a89 c5bd 80a2 4b3c 67f9 0cbe 474e e03d
00000250: 8894 b8bd 47d5 84bd e0f4 ddbd c5ac 8ebd
00000260: 7012 133d d20b ccbd d270 b8bd dc72 843d
00000270: 1923 eebc 28bf 38bd d777 c3bd 68e2 6cbd
00000280: 4219 ae3d a239 99bd ba24 a0bd 08a3 3d3d
00000290: 01ef 073e 0f34 b6bd 74e0 f6bd 5b72 ff3d
000002a0: 6b23 ad3c fee6 d63d 4ff8 00be 0ec2 be3c
000002b0: cb05 623d 1638 ecbd 4526 c0bb 46ca 0a3e
000002c0: cf32 a33d 3f66 9b3d 6ae6 0abd 080a f73b
000002d0: 7c1a af3d 5b7e fc3c a8e5 64bc e853 96bd
000002e0: 7c2d 8f3d bb77 fbbb b224 dcbd 3d3b 9c3d
000002f0: 6b37 903d f16a ad3d 9225 133e 5875 e8bd
00000300: a95e 953d 856a c93d 489d d53d f131 c53d
00000310: 2c93 73bc e3ef b03d 83a2 e9bc 4f85 b13d
00000320: 4dc1 c03c 2f83 95bd 921b 68bd 8ca8 93bc
00000330: e3ed 7c3d de85 153e 205e 053d 083f 0dbe
00000340: 6253 35bc c851 f83d 21c8 05be 5bfe 2cbe
00000350: 9b75 a6bd 7686 08be 9ae3 883d c35b 2b3e
00000360: 9d2f 083e 4f8c 263e 5b34 ab3d c47e c43d
00000370: 3222 d93d 5fd3 0abe 5485 f73c 9161 963d
00000380: 7646 fdbd 86b2 cd3c 2b94 f53d db3f 893d
00000390: 442a 603d 7bb4 56bd 7d1c 6fbd d453 a83c
000003a0: 48c0 8e3c 1adc a1bd ee4e 0bbe 0a88 1a3e
000003b0: dbfe 993d 8511 403d 502b 1c3d f111 23bd
000003c0: 597d fabd 22d8 05be d3f9 e5bd 4702 8ebd
000003d0: 9da1 203e f992 d23c 8cb1 27bd d089 d83c
000003e0: a99c 81bd ce92 d1bd a8bf 613d df18 09bd
000003f0: 3e29 9bbd 477a 243d a499 963d 2a2f ad3c
0.03916509 0.06514853 0.13299552 0.08138983 0.09410875 -0.07506881 0.019168595 -0.09972397
-0.0017996378 0.050056275 0.07188079 0.06781629 0.14609313 -0.16062155 0.0015060042 0.06733074
-0.077034436 0.042307973 -0.02729952 0.065206245 -0.10829736 0.016344815 -0.10279236 0.04775703
-0.14441936 -0.08638456 0.055335306 0.103320464 -0.053401813 0.04446858 -0.10376739 -0.14133933
-0.11868601 0.026297867 -0.04705351 -0.067011826 0.048952907 0.056850143 -0.007034203 -0.11127405
-0.063363835 -0.14468296 -0.06657059 0.058849674 0.01371754 -0.040865302 -0.0025239668 0.104420446
-0.086014174 0.089729786 0.063183255 0.02675482 -0.11857978 -0.097824514 0.03349597 0.012564625
-0.05070176 0.040504113 -0.14373653 0.007885779 -0.0077831424 -0.12758018 -0.035621494 -0.17029123
0.032775115 0.06765717 -0.04821416 0.0088835675 0.15624343 -0.036061313 -0.07746846 -0.07697452
0.13236968 0.0008203938 -0.16224475 0.060340013 -0.043109268 0.101679705 -0.06057406 0.14446568
0.06230701 -0.01984191 0.042931154 0.12412299 0.0358351 -0.11099883 0.02738006 0.03334663
0.034002803 0.03156791 0.06387172 0.074104644 -0.016656414 0.065125935 0.14020541 0.08637596
0.10620637 -0.124561176 -0.074090265 -0.14952405 0.03562803 -0.14194782 -0.0025959979 0.10025797
-0.046022184 -0.1148111 0.08735051 0.062879354 -0.019355847 -0.035330247 0.00094347517 0.054974876
0.06934595 -0.00017966962 0.09570545 -0.07484426 0.024489306 -0.063255526 -0.15026201 -0.07956365
-0.0042528077 0.11860943 -0.004510655 -0.062104624 0.13154943 0.08613612 -0.08223661 -0.07322205
0.113349386 -0.13451746 -0.1091449 -0.07254374 -0.085773274 0.05734726 0.04317552 -0.0040212083
0.08703992 0.07486723 -0.15377338 0.063733205 -0.0018875507 -0.11375941 -0.051131308 0.106978215
-0.096453026 0.01242888 -0.13767014 0.1095243 -0.09012705 -0.06485992 -0.10837722 -0.06966547
0.035906255 -0.09963192 -0.09005894 0.0646722 -0.02906947 -0.045104176 -0.09544342 -0.057833105
0.08500911 -0.07481696 -0.07819505 0.046298057 0.13274767 -0.08896648 -0.1205453 0.124729834
0.021135053 0.10493277 -0.12594722 0.023285892 0.055181306 -0.11534135 -0.005863937 0.13553724
0.07968675 0.07587861 -0.033911146 0.0075390376 0.08549973 0.03082197 -0.01397077 -0.073402226
0.06991097 -0.007674185 -0.107491866 0.07628486 0.0704182 0.08467663 0.143698 -0.113505065
0.072934456 0.0983477 0.1043039 0.09628666 -0.0148666315 0.08639505 -0.028519874 0.08668005
0.023529673 -0.07300412 -0.056666918 -0.018024705 0.061750304 0.14601848 0.032560468 -0.13793576
-0.011067243 0.121249735 -0.13064624 -0.16893904 -0.081279 -0.13332543 0.066840366 0.16734223
0.13299413 0.16264461 0.083595954 0.09594491 0.10602225 -0.13557194 0.030214943 0.07342828
-0.12366955 0.02510954 0.119911514 0.067016326 0.054727808 -0.052418213 -0.058376778 0.020547785
0.017425671 -0.07903309 -0.13604328 0.15090957 0.07519313 0.046891708 0.038127244 -0.039812032
-0.122309394 -0.1307073 -0.11229291 -0.06934028 0.1568665 0.025704848 -0.040940806 0.026432902
-0.06328709 -0.10233079 0.05511442 -0.033470985 -0.07576226 0.040155675 0.073535234 0.021140654

lstm.bias_ih_l0 f4 [200]
00000000: 3c7a 933d 614a a23d 3c90 bdbb 27ad db3d
00000010: fe5d b0bd b1e8 0c3e 187c b23d dc01 9b3c
00000020: 8f29 06be 7489 7a3c ebde 6c3d 54fb e93d
00000030: 5280 163d 7f05 bebc 7049 9abd 4771 933d
00000040: 95c0 16be dfe5 37bd 830d bc3c 84d8 2f3d
00000050: 459d 2cbb 95ee 3d3e 1f31 163e f8cf 993d
00000060: 945f 913d 93a8 6ebc 8a71 d2bd 69f5 77bb
00000070: da8b 8f3d a606 1abd 9e2b 7a3c 9dbd 1abd
00000080: 1f50 a5bc 2477 ff3d 9624 063e 4914 d9bd
00000090: 9588 9abd 3f51 9b3d ec3b d6bd d04a c93d
000000a0: 88f1 b13d b7f5 5e3d ff0e 4c3d 1b79 b63a
000000b0: 087e dcbd dd76 1abe c073 d13d 3ae7 a5bd
000000c0: e275 033b f57f dd3d 1a8c d93c 7715 99bd
000000d0: fe70 ac3b 06c2 0c3e 8731 3d3d a6c0 253d
000000e0: 98b3 2c3e 859c 0abd bb0c f5bc 576f f23d
000000f0: 1dc0 bf3d 02f8 be3d a72b 943d 2ac8 643d
00000100: 90a3 6ebd c544 c3bd bb69 dc3d f7ce a03d
00000110: d95b ecbd aac4 163e 8574 c2bd 7b60 f03d
00000120: 9527 4c3d 4687 bc3d db0d af3d 3fc5 5abd
00000130: 27a7 bbbc 6d2a 0d3e f133 da3c 40b7 d43d
00000140: f42a 23bd b038 053e e2b8 ecbb 83ec 0abe
00000150: 216f 903b 3c34 423d 3a54 e63d 8c72 ca3d
00000160: c4fd 7b3c 34b1 1e3e 5b08 b63d e0ae 013d
00000170: 6e7b be3c ee7a d23d 49e8 38bd b006 713c
00000180: 3045 123e 1f63 c3bc 8247 ce3d ff9f 053e
00000190: 653b f8bd 5de7 4f3d 3044 b43d a988 9b3c
000001a0: 4d2c dabd 0daa be3d 5ccd 5739 9b3e abbc
000001b0: db25 173d f51c a0bc 6b55 84bd 6d3d d0bd
000001c0: 7f7e 53bd d999 ecbc 5dbe 9fbd cac8 ee3d
000001d0: 444d 743d 93bc 8a3d 2f02 f13d f5c5 8abd
000001e0: 3e09 f83d b4ed 6f3d 062a a53d 2fb0 fc3c
000001f0: b054 04bd 8e29 7cbd fabf 0e3e 502e 90bd
00000200: c7df fdbd 9659 24bd 994a cb3d fc8f d83c
00000210: a5b9 023e fbd5 093d 9c76 c03d c39a 08bc
00000220: dafb a53d 3f51 f83d 4466 f13d d49b 7bbd
00000230: 97a6 86bd 0379 0d3e fde9 123e 5846 91bc
00000240: 81c6 df3d 382c f2bc 46b1 6dbd ecc3 d1bd
00000250: 9bdf 9e3d 9a9a 54bd c2fd cd3c 06a3 893c
00000260: 29ff d53a d743 adbd d59c 0cbd dad0 003e
00000270: c7ad e53d 7824 293d e5e7 e43d 688e 1fbc
00000280: 17cd 2bbd f733 b7bc 843d 07bd 04a2 61bc
00000290: 46e7 9d3d e92b b93d 9ff0 1a3d ed65 203e
000002a0: f46b 1ebe 26f9 07bd fc97 933c 4387 a43d
000002b0: 296f 963d ba8e 0dbc 5a14 42bd afec ca3d
000002c0: 0f53 e23d 7c35 47bc 5118 bf3d 79c0 90bd
000002d0: d686 8fbd e6c6 f5bc e184 13be 8416 b3bd
000002e0: 6aa8 16bd 3f15 d3bd b373 83bd df8f 213d
000002f0: 0939 213e b742 053c 1be7 eb3d 05b9 033e
00000300: 51ac 843d 8de8 853d 21d0 efbc 6580 04bb
00000310: a0cb da3d 89f5 863d b372 1cbe facb b1bd
0.07201049 0.07924343 -0.0057850163 0.107263856 -0.086116776 0.1376064 0.08715075 0.018921785
-0.13101791 0.01529156 0.05782978 0.1142489 0.03674347 -0.02319598 -0.07533538 0.0719934
-0.14721902 -0.044896957 0.022955662 0.042931095 -0.0026338857 0.18548043 0.14667176 0.0751037
0.07098308 -0.014566558 -0.10275562 -0.0037835485 0.070090964 -0.037603997 0.015269188 -0.037778486
-0.020179806 0.12473896 0.13099894 -0.10599572 -0.07545582 0.07583856 -0.10460648 0.098287225
0.086886466 0.05443355 0.04981899 0.001392159 -0.10766226 -0.15084405 0.10227156 -0.081007436
0.0020059277 0.108154215 0.026556063 -0.07474797 0.005262493 0.13745889 0.04618981 0.040466927
0.16865385 -0.033840675 -0.029913297 0.11837643 0.093628146 0.093246475 0.072348885 0.055854954
-0.058261454 -0.09534601 0.10762354 0.078519754 -0.11540956 0.14723459 -0.094948806 0.11737152
0.049842436 0.09205489 0.085475646 -0.053410765 -0.022906853 0.13785715 0.026636096 0.10386515
-0.039835885 0.13009906 -0.007224188 -0.13566785 0.004407779 0.047413096 0.11246534 0.09885129
0.015380327 0.15497285 0.088883124 0.031660914 0.023252215 0.10277353 -0.0451434 0.014711067
0.14284205 -0.023850976 0.10072233 0.13049315 -0.121207036 0.050757755 0.08802068 0.018986063
-0.10652981 0.09309778 0.000205805 -0.020903876 0.036901336 -0.019545058 -0.06461605 -0.10167966
-0.051634308 -0.028881954 -0.07799981 0.11659391 0.059644 0.06774249 0.117679946 -0.067760386
0.12111138 0.0585763 0.08064656 0.03084573 -0.032307327 -0.061563067 0.13940421 -0.070400834
-0.12396198 -0.0401245 0.09926338 0.026435845 0.1276613 0.033651333 0.09397623 -0.008337679
0.081046775 0.121248715 0.11787084 -0.061427906 -0.06574743 0.13815694 0.14347072 -0.017733738
0.109265335 -0.0295621 -0.05803039 -0.10242447 0.07757493 -0.051905252 0.025145415 0.016801368
0.0016326654 -0.08460205 -0.034329254 0.1257967 0.11214786 0.041294545 0.11177043 -0.009738542
-0.041943636 -0.022363646 -0.03301765 -0.013771538 0.077101275 0.09041578 0.03782713 0.15663882
-0.15470868 -0.03319659 0.018016808 0.080336116 0.07345421 -0.008639986 -0.04738269 0.09908425
0.110509984 -0.012158748 0.0933081 -0.07067961 -0.0700814 -0.030002069 -0.14406158 -0.08744529
-0.036781706 -0.10306787 -0.06418552 0.039443847 0.15744413 0.008133582 0.11518689 0.12863548
0.06478179 0.06538496 -0.029274048 -0.002021813 0.1068337 0.06589801 -0.1527813 -0.086814836

lstm.bias_hh_l0 f4 [200]
00000000: a989 7fbc 70e3 2ebd b0ad 25bd 44b0 adbd
00000010: 85c5 4fbd de85 97bd f86e bfbc a729 a8bd
00000020: aef3 98bd 5888 1c3e d4f0 d43d 5ff5 9f3d
00000030: 673c afbd 9dd3 aebd c3ef c83c f6b3 80bc
00000040: 3895 bc3d 9cbe 20bc 0825 6abc d758 dd3d
00000050: d6e1 18bc c23f 1f3d ceb9 d43d 5c58 6a3d
00000060: 70f3 4d3d 3145 b3bc b254 dc3d 80b0 383d
00000070: 632e b1bc 7358 b73c 34cd ce3d 325d 5e3d
00000080: 8839 803d fa93 0ebd 7757 a03d 49c4 903d
00000090: a267 693d 38b5 1d3d 0348 973b e53e a4bc
000000a0: 9f85 3b3d 7315 24bc 6caa 0c3c f26e 0ebe
000000b0: 4a7e af3a 613c ec3d a0ba 753d c23a 233c
000000c0: 81fa 83bd 5f7d cb3d 616b 09bc d686 f43d
000000d0: 0024 3b3c 2e21 7ebd 3a2e 7b3d 241c 7fbd
000000e0: 88c1 3e3e 09db 16be edb7 f23d 17d2 e5bd
000000f0: 858f cbbd 5085 1f3e cfc8 2cbd 58c3 9e3c
00000100: ba4f dabd a5a5 fabb ff2d ecbd a9cc 9dbc
00000110: 6359 d0bd 3ad3 05bd 1034 44bd 0095 013e
00000120: 6c87 eabd 1858 cd3d 859f c53d de1a ab3d
00000130: 2b04 a03d 7f11 133e b90f db3c 5b8e 6b3d
00000140: cfca cd3c e212 143e 8bf2 87bd c671 9fbc
00000150: ddc2 b53d 63ef 443c acc1 4a3d 504b ca3d
00000160: f0f2 e33d 7d54 673d 985b 73bd 94ee c83d
00000170: 637b 0c3e a418 e7bd e2e8 02bd 1bb6 2a3d
00000180: f4b7 ac3c 1579 0c3e 0e0f 05be f9e6 8abd
00000190: 243b 9abd eaf6 c4bc f555 673b dc8a abbd
000001a0: e4f5 f13d 3e9e 1f3d f45f 8bbd 8125 01be
000001b0: 7867 96bd d6f5 bebd 1a4e 5dbd 7858 b73d
000001c0: 4a2d de3c 6411 34bd dbe8 24bd 1def f33d
000001d0: 8704 b53d c0e7 7ebd 9c2a ac3c 4778 c83d
000001e0: 2427 d23a ac90 75bd ccb0 a0bd 13c7 5d3d
000001f0: 600b 0abd d5e4 9bbd 9e28 e63d 74d3 033e
00000200: dff2 f73c 22f9 af3d d5e0 08bd 1e15 d8bd
00000210: 5bff ef3c 6c90 f93c 20e8 e3bd cc5a 00be
00000220: f2a5 b5bc 8955 71bd 9bba b9bc 10a4 833d
00000230: 2bcb a2bc 1fde e8bd 83fb a8bd 9d94 8dbd
00000240: dd1b bb3d 9723 46bd 30d1 5d3d 1760 093d
00000250: f1b0 d33d ac7b 5abd 76b6 d13d 2221 abbd
00000260: 3b9f b33d 3b31 e9bd dee3 f2bc 83ee 013e
00000270: 830b 283e 0076 f6bd a31d acbd d3d8 d63d
00000280: db56 04be b427 b5bd f62a 4fbd 886f e3bc
00000290: 500e a8bc eb70 923d d2e5 18be d007 9dbd
000002a0: 30ab 923c d9c0 1c3e fd9a e23c 5d8e aebc
000002b0: 3c7f b93d 43a5 d4bd 6ac8 073e 9f99 16bd
000002c0: b2c7 bdbb a5b9 d93c a99a 263d 2ee3 553d
000002d0: 10bb 83bd a131 0d3e f6bc 63bc b025 743d
000002e0: 4e29 df3d 79a6 98bd 5deb 3bbd ddc9 b0bd
000002f0: b39d 1a3e ebb0 d6bd f801 3d3d 735e 23bd
00000300: 0120 9f3b 5722 b0bd d96a 15bd f322 11be
00000310: 3698 8abd 8daf a33d bd14 c63d 0d14 0d3d
-0.015596786 -0.04269737 -0.040448844 -0.084808856 -0.05072548 -0.0739858 -0.023368344 -0.082110696
-0.07468353 0.15286386 0.10397497 0.07810473 -0.08556443 -0.08536456 0.02452839 -0.015710812
0.09208149 -0.00981107 -0.0142910555 0.108079605 -0.009331187 0.038879164 0.10387002 0.057213172
0.05028099 -0.021883579 0.10758342 0.0450902 -0.021628564 0.022381043 0.10097733 0.054288097
0.06260973 -0.03480909 0.078291826 0.070686884 0.056983598 0.0385029 0.0046167388 -0.020049522
0.045781728 -0.0100148795 0.008585554 -0.1390951 0.0013389078 0.11534954 0.059992433 0.009962739
-0.06444264 0.09936022 -0.0083874175 0.119397804 0.011422157 -0.06204336 0.061323382 -0.062282696
0.18628514 -0.14731993 0.11851487 -0.11221712 -0.099394836 0.15578198 -0.042183693 0.019380257
-0.10659738 -0.007649141 -0.115322106 -0.019262629 -0.10173299 -0.032672144 -0.047901213 0.12654495
-0.11451611 0.10026568 0.096495666 0.08354734 0.07813295 0.14362143 0.026740896 0.057508808
0.02512112 0.14460328 -0.06638058 -0.019463431 0.08875058 0.012019965 0.049501106 0.09877646
0.11130321 0.05647706 -0.059413522 0.0981113 0.13718943 -0.11283997 -0.031960376 0.041677576
0.02108381 0.13718064 -0.12994024 -0.06782336 -0.075308114 -0.024043519 0.0035299037 -0.08376095
0.11814478 0.03896927 -0.06805411 -0.12611963 -0.07343954 -0.09324233 -0.05402956 0.08952421
0.027121205 -0.043961897 -0.04026113 0.119108416 0.08838754 -0.062232733 0.021016411 0.09788566
0.0016033393 -0.059952423 -0.07846221 0.05414493 -0.033702254 -0.076120056 0.11238216 0.12873632
0.030267177 0.0859244 -0.03341754 -0.10550903 0.029296568 0.030464374 -0.11128259 -0.12534636
-0.022173855 -0.058919463 -0.022671988 0.06427777 -0.019872269 -0.11370491 -0.08251097 -0.06913111
0.09136174 -0.048373785 0.054154575 0.033538904 0.10336483 -0.0533406 0.1023988 -0.08355929
0.08770605 -0.11386343 -0.029649671 0.12688641 0.16410641 -0.120342255 -0.0840409 0.10490575
-0.12923758 -0.088454634 -0.05057808 -0.027763143 -0.020514637 0.07150444 -0.1493142 -0.07667506
0.017903894 0.1530794 0.027661795 -0.021308118 0.09057471 -0.10383084 0.13260046 -0.0367676
-0.005791628 0.02657778 0.04067484 0.05221861 -0.06432164 0.13788463 -0.013900032 0.059606254
0.1089655 -0.07453627 -0.045878757 -0.08632252 0.1509922 -0.10482963 0.046144456 -0.039884996
0.00485611 -0.086003 -0.03647885 -0.14173488 -0.06767313 0.07992468 0.09671924 0.03444295

lstm.weight_ih_l1 f4 [200, 50]
00000000: d8d7 973d d6fc 5fbd 116e 62bd 1986 013c
00000010: 354c 5fbd d700 48bd a671 533e 5f07 38bd
00000020: b843 8fbd e3fb e73c 7ea9 90bd 33ef 71bb
00000030: 43f5 2d3e e19a bd3d aa5f fdbd 060f 49bd
00000040: ecc8 ae3c 4e8d 203e cc2f 143e 6c9e 23be
00000050: f693 f5bd 5a47 abbd 17da b73d d0c4 743b
00000060: ddc3 a23d 1427 cabd 9ada 6f3d 7dd2 a93d
00000070: be93 19be 55aa 5bbd eb21 c4bd 9965 27be
00000080: b861 39bd 456d 0bbd e75f 2dbd 4191 24bd
00000090: a59d adbd 862d 87bd 5003 133e 36ef 263d
000000a0: 3b13 973d ea14 a4bc c74f 913d fd1c 333d
000000b0: 0c6d 0ebd 7eae f73a 0cf8 43bd 1de8 243d
000000c0: b8b5 ef3d fac8 d3bd c087 4c3d dfcb 96bd
000000d0: 9559 793c 275f 853c cbd3 7cbd 0fe7 f2bd
000000e0: f051 e43d 1632 8c3c 8abb 1a3e fd22 00be
000000f0: 3514 d2bd e793 b7bd 4660 e23d 4754 083e
00000100: ab99 053e 1893 a33d 4c90 19bd 7bed 3bbc
00000110: bb55 973d ad10 9b3d 7912 ee3d 89f4 70bd
00000120: f080 71bc 41fd f3bc c17d 553d d617 6c39
00000130: 0e36 273d ae9f c03d e4ed 9b3d 1186 453c
00000140: 8c3d 003e d379 fb3d e39d 34bd b64d 193d
00000150: bbeb 0abc fc95 a23d afe6 a5bc 8054 c93d
00000160: 5e0c 923c 9bd8 123e 7b35 a93d 66d2 273b
00000170: c8b7 e7bd 8b8c 46bd 3ccc f6bd 5dab ca3d
00000180: b4b5 ed3c a0c0 d6bd 04e1 c3bd 31ac 9f3d
00000190: 8342 a6bd 558b 333b afd3 dcbd a2d6 053e
000001a0: 7066 8a3c 3f14 f5bd 22db 303e 8e06 97bc
000001b0: b8ad 5b3c c9fd 973d c982 a33c 251d 59bd
000001c0: e945 7c3d 34ca 12be 5af2 c0bd 4112 abbd
000001d0: 99b5 aa3d b7c0 0b3e 1b13 e43d 5a53 dcbd
000001e0: 8d20 1b3e 2d83 3dbe 9730 a0bd 8db4 0b3d
000001f0: 6374 75bd 569a ff3b 04e9 c53c a4e8 1f3c
00000200: 4836 ed3d 51c5 07be 05a7 15be 578f 4abd
00000210: 2910 353d 19f9 613c cd95 c03d 1e6f 87bc
00000220: d057 6abd 89b6 103d a4d6 93bd fec3 1fbd
00000230: db48 1dbe bae6 9cbd 5032 143e 1523 c33d
00000240: cced e1bd d18d efbd af65 6fbd df05 b1bd
00000250: e4b8 923d 5121 703d 2e90 503d d01f 93bd
00000260: 31ce a83c 6034 d33b cf8c e1bd 153c 903d
00000270: d8b5 323e 5b64 be3c d7f3 05bd 5154 113d
00000280: 3f88 a13d 3365 05be 47bf 0d3e b0e0 193d
00000290: 10fd a53d 2144 d63d 5fb5 cebd 9592 abbd
000002a0: aeb6 193e 311c 103d 88f2 e4bd bbb2 00bd
000002b0: a2aa 803d 9ed9 c3bd 0b0f 1dbc ecd8 1ebc
000002c0: 9810 e33d bb6b f63d 9ba8 6abd 93eb bb3d
000002d0: c202 823d 8238 7bbd 5189 0ebd 8512 263b
000002e0: 68fa 91bc e916 043e 7b66 2ebd a129 2f3d
000002f0: 0115 6b3d 45d0 453c 1fd7 49bb 8c47 2c3d
00000300: 89c5 c53d 264b 58bc 3cb7 9c3d 81fd c9bd
00000310: 78e0 d6bd 8d6e c33d d85c 093e caa6 aebd
00000320: 2731 6c3d 4335 213e fc54 d03d 97fb 3b3c
00000330: 4439 10be 9abd 19be aecd 0b3d 5a87 40bd
00000340: a8be ce3c edaa a4bd 8622 0abe 1fb5 4d3d
00000350: 1e4c 153d e1f9 37bd 7b99 223d 510f 6b3d
00000360: 3ff4 dfbd 1a94 0a3e 97ab 2c3b 9095 b13c
00000370: c1a4 8d3c 092b c6bd bfcc f3bc 8fd2 9dbc
00000380: c51b 30be afce a8bd 7045 b3bd 99cb 133d
00000390: 1179 ea3d 8158 06bd 8b98 03be 0aad 7ebd
000003a0: 771d 0f3d aa0f 5cbd 7a0b 243d 1954 e43d
000003b0: 2ad6 123e dec1 a0bd a616 ba3d fa6e 15bd
000003c0: 4510 b33d 205d b93d 6034 063e 77ff 3abd
000003d0: e11c 4dbb dcd1 7fbd 7c38 f23d 6858 923d
000003e0: 1f35 963d 885f 5fbd ef0e aa3d ce6a 393e
000003f0: 0df6 d1bd f93a 083e 54d7 aa3d f306 b13d
0.07414216 -0.054684483 -0.05528075 0.0079055065 -0.054516036 -0.048828926 0.20648822 -0.044928905
-0.06995338 0.028318351 -0.07063578 -0.0036916255 0.16988091 0.092580564 -0.12371762 -0.049086593
0.021336041 0.15678903 0.14471358 -0.15978402 -0.11991112 -0.083632186 0.08977144 0.0037348755
0.07947514 -0.09870735 0.058558084 0.082921006 -0.14997765 -0.05362924 -0.09576782 -0.1634735
-0.045259207 -0.034039754 -0.042327788 -0.040177587 -0.08477334 -0.0660048 0.14356732 0.040755473
0.07376715 -0.020029504 0.070952944 0.043728817 -0.034771964 0.0018896607 -0.047843978 0.040260423
0.11704582 -0.103410676 0.04993415 -0.07363104 0.015219112 0.016280724 -0.06172542 -0.11860477
0.11148441 0.017113727 0.15110603 -0.12513347 -0.102577604 -0.08963757 0.11053519 0.133134
0.13046901 0.0798704 -0.037491128 -0.011470194 0.07389399 0.0757154 0.11624617 -0.058826957
-0.014740214 -0.029783847 0.05212188 0.00022515593 0.040823035 0.094054565 0.076137334 0.01205589
0.12523478 0.122790955 -0.044095885 0.037427627 -0.008479054 0.079387635 -0.0202516 0.0983057
0.017828163 0.14340441 0.08262154 0.0025607585 -0.1131435 -0.048473876 -0.12050673 0.09895966
0.029017307 -0.10485959 -0.09564403 0.07796515 -0.08118155 0.002739628 -0.10782563 0.13070157
0.01689455 -0.11966752 0.17271093 -0.018435743 0.013408117 0.074214526 0.019959824 -0.05300631
0.06159011 -0.14334947 -0.09421225 -0.08353091 0.08335418 0.13647734 0.111364566 -0.107580855
0.15149136 -0.18507071 -0.07821768 0.034107734 -0.05992545 0.0078003807 0.024158962 0.009760056
0.11582619 -0.13258864 -0.14614494 -0.049453106 0.044204865 0.0137923 0.09403572 -0.016532477
-0.05721265 0.03533033 -0.07218674 -0.039005272 -0.15359823 -0.07661195 0.14472318 0.09528176
-0.11031684 -0.11696971 -0.058446582 -0.08643698 0.07164171 0.058625523 0.05091875 -0.07183802
0.020606132 0.0064454526 -0.11013185 0.0704271 0.1745218 0.023241213 -0.032703247 0.0354808
0.07887315 -0.13026886 0.13842498 0.037567794 0.081049085 0.10462213 -0.100931875 -0.08377568
0.15011093 0.035183135 -0.11179072 -0.03142045 0.062825456 -0.095629916 -0.009586106 -0.009695273
0.110871494 0.12032267 -0.0572897 0.091757916 0.06348182 -0.061333187 -0.034798924 0.0025340628
-0.017819598 0.12899365 -0.0425782 0.04276431 0.057393078 0.012073581 -0.0030798388 0.04206042
0.096568175 -0.0132015105 0.07652137 -0.09862805 -0.10492033 0.0954257 0.13414323 -0.08527906
0.057664063 0.15742974 0.101724595 0.011473558 -0.14084345 -0.15013734 0.0341317 -0.04700408
0.025237396 -0.08040414 -0.13489732 0.05022156 0.036449544 -0.044916037 0.03969715 0.057387654
-0.10935258 0.13533059 0.0026347393 0.021677762 0.017290475 -0.09676177 -0.029760716 -0.019265441
-0.17198093 -0.08242547 -0.087534785 0.036082838 0.11448873 -0.032799248 -0.1285116 -0.06217674
0.03494021 -0.053725876 0.040050007 0.11148853 0.1433951 -0.07849477 0.09086351 -0.03648279
0.087433375 0.09050965 0.13105917 -0.045653787 -0.003129773 -0.062455997 0.1182718 0.071457684
0.07334351 -0.054534465 0.083036296 0.18107149 -0.102520086 0.13303746 0.08341852 0.086439036

lstm.weight_hh_l1 f4 [200, 50]
00000000: d1ae 033e b2b6 8c3c 439d 393d 5e87 9abd
00000010: b0b2 0c3e 9a31 9a3d 864a cf3d b357 5aba
00000020: 9989 e6bd 5822 c73d a162 34bc ee2c ffbd
00000030: 201a b8bb fc2d 60bd 752f 453d 3cf9 6a3d
00000040: 32d3 2bbd f83a 043e a021 eabc 708f d53d
00000050: 6b04 c53d c8c8 fbbc 6bbc 18be 4e04 09bd
00000060: 8bf4 9bbd 108d 0ebc 0cca a2bd d87c 14bd
00000070: 83e8 943d 6828 b0bd 70ca 64bd 676a b23d
00000080: 69ff 20bd 3988 363d 980c 93bd 8fc0 b9bd
00000090: 3616 cc3d 3700 ae3d 8cdc 2c3d d255 28bd
000000a0: f750 f0bc 8423 bc3d 8bdd 08be e64c 823d
000000b0: 398c 583d 1bad 843d 2984 9d3c 0109 9dbd
000000c0: 7665 a63c 969b 9b3d 6e17 743d 86d9 08be
000000d0: e8cd 76bd 8337 9c3c a625 0cbd 5133 de3d
000000e0: b9e6 8b3d 9fdc 26bd 68a8 25bd 0e23 b6bd
000000f0: 713a 97bd 29d7 b6bc 4c1f 953d b942 703d
00000100: 83fb a4bd 6765 043e fa62 463d 39f8 11bc
00000110: 7f27 ca3d 11df 493d 08cd fcbb d9d4 d63d
00000120: 3814 063e e87b a23c a1f2 a53d 2496 bfbd
00000130: 1574 dc3d 4aff 9e3b b339 903d a56a 5f3d
00000140: d435 9d3d fe34 983d 1377 05be 7f73 2d3d
00000150: c6b9 83bd f40f c2bc 6c4b e53d 74ca 12bd
00000160: 8fd9 0bbe c2af 08be 75e7 afbd 6c1f 023e
00000170: 473b 1a3e 0b4a e9bd 867a f03d 2e42 15bd
00000180: 21c9 9f3b 30e3 8c3d a3cd 76bd ac0b 77bd
00000190: 0557 cbbd 8c46 563d 3492 133e 77b7 d0bd
000001a0: fa10 a63c acc8 c1bd 7717 ff3d d7b6 0d3d
000001b0: f833 db3d 8bdc c7bd 752f dc3d b700 26bd
000001c0: 3843 13be 3fa4 80bd 4184 93bc bd7f bdbd
000001d0: 4fcb dfbd 3aa7 7d3d 69b9 bf3c 226c b13d
000001e0: 082f dc3d 8e94 0b3e d46e 11bc 362f fa3d
000001f0: 2bd9 e73d a814 bf3c 80dd ad3d f8f3 a03d
00000200: 290e 753d e7f0 0bbe 60cd 8abb b3dc 933d
00000210: ca99 fabd cb9c f1bd 8a5a 04bd 1a80 d4bd
00000220: c652 d8bd 04a2 dd3d baf4 133e 1932 243d
00000230: 156f 9fbd 00bf 603b ea1b 813d 8042 13be
00000240: 3370 8cbd f048 093e 4b12 fabc 0b6d 8f3d
00000250: 2028 84bd 939f 6fbd 8466 f33d dbda f53c
00000260: e718 3f3d bc99 19be 93fb c83d 45a5 ef3d
00000270: 1bac f3bc dda0 4f3d a161 253d 47b6 fc3d
00000280: 9dc8 8ebd a476 eebd f171 03bc e636 4a3c
00000290: 8b4e 5dbd 7233 bcbb 501d 17be 3ba1 d1bd
000002a0: a4d7 06be a0ae 103c 0272 c63d e9e9 243d
000002b0: 6d50 11be fdf1 c7bd 5403 113c f083 85bd
000002c0: c12d af3c cfe2 a23a 65a5 303d 1a3c 0fbd
000002d0: 70c9 a8bd 1b1f da3d e007 1c3e 0b4d f2bc
000002e0: 7cf1 023e 2294 0cbe b363 803d 2c4e 8b3d
000002f0: b8ae f13d 0197 fc3d a281 903d c91f e4bd
00000300: ff67 41bd 6a34 ac3d 2392 c03d 1bf9 ba3d
00000310: 96c5 5d3d ead4 323c 255a dd3c 15bc c4bc
00000320: 4657 063e 13f1 603d e739 05bd 85bb 133d
00000330: cf72 c6bd 318f c0bd 9b2b 793d 76bf 0e3e
00000340: f918 0b3e 4942 a9bb 4332 9f3d 1ebe babc
00000350: e9d3 063d 4565 523c e797 063d 8239 c8bd
00000360: ef76 7bbd a5e5 00be 5fa6 02be b89c dcbd
00000370: c27f e0bd e58d 72bd 43b4 c03d d3ec 1bbd
00000380: 021f 84bd 0f44 17be 376f 143e db25 35bd
00000390: 68aa cd3c f6f3 abbb af3f d13d 9142 f23d
000003a0: 5236 043e 235f 9f3c a5c1 c0bc 1b5e cc3d
000003b0: 1742 22bc 1a68 08be 5c9d b2bd 5fd4 06be
000003c0: 91a4 0cbe 1aa6 d1bd c278 bdbd e2d8 80bd
000003d0: af54 e6bd 1c8d 18bd 84d1 09be 45ad ea3d
000003e0: 6872 6fbc 5e1e 003e cc05 0c3d 24a0 4c3d
000003f0: 43f4 0f3e 3cc7 d83d 6444 d1bd 30ee a2ba
0.12859656 0.01717696 0.045315992 -0.075453505 0.13740039 0.07528992 0.10121636 -0.0008329108
-0.112567134 0.097233474 -0.011009843 -0.124597415 -0.0056183487 -0.054731354 0.04814096 0.057366595
-0.04194946 0.1291312 -0.028580487 0.10427749 0.09619983 -0.030735388 -0.14915626 -0.03345137
-0.07615002 -0.008700624 -0.07948694 -0.036251873 0.072709106 -0.08601457 -0.055857122 0.08711701
-0.039306078 0.044563506 -0.071801364 -0.09069931 0.09965174 0.08496135 0.042202517 -0.04109747
-0.029335482 0.091864616 -0.13365762 0.063623235 0.0528681 0.0647833 0.019228058 -0.07667733
0.020312052 0.07598035 0.059592657 -0.13364229 -0.06025496 0.019069439 -0.03421559 0.108496316
0.06831116 -0.040737744 -0.040443808 -0.08893405 -0.07384194 -0.022319393 0.0728136 0.05865738
-0.080557846 0.12929307 0.048434235 -0.008909279 0.098708145 0.049285 -0.0077148713 0.10489816
0.1309365 0.019834474 0.081029184 -0.09354809 0.107643284 0.00485221 0.07042255 0.054545064
0.076762825 0.074319825 -0.13033704 0.042346474 -0.06431918 -0.023689248 0.11196026 -0.035837606
-0.13657211 -0.13348296 -0.08589069 0.12707299 0.15061675 -0.11391076 0.117421195 -0.036440067
0.0048762714 0.0687927 -0.060254704 -0.060313866 -0.09928707 0.052313372 0.14411241 -0.10191243
0.020271767 -0.09462103 0.124556474 0.034598198 0.107032716 -0.09758862 0.10751239 -0.040528025
-0.1438111 -0.062813275 -0.0180074 -0.0925288 -0.1092745 0.061927058 0.02340384 0.08663203
0.10751158 0.13630888 -0.008876521 0.12216036 0.113207184 0.02332528 0.084895134 0.07859033
0.059827957 -0.13666116 -0.0042359084 0.072198294 -0.12236364 -0.11797484 -0.032312907 -0.10375996
-0.10562663 0.10821918 0.14448825 0.04008684 -0.07784859 0.0034293532 0.06304152 -0.14380836
-0.06857338 0.1340673 -0.0305263 0.0700322 -0.06452966 -0.05850179 0.11884788 0.030011585
0.046654608 -0.15000051 0.09813609 0.117014445 -0.029745152 0.05069052 0.04037631 0.12339454
-0.06971858 -0.11643723 -0.008022771 0.01234219 -0.054029983 -0.0057434374 -0.14757276 -0.102358304
-0.13168198 0.008830696 0.09689714 0.040262137 -0.14190836 -0.097629525 0.008850891 -0.06519306
0.021384122 0.0012427213 0.043126483 -0.034969427 -0.08241546 0.10650464 0.15237379 -0.029577753
0.12787431 -0.13728383 0.06269016 0.068020195 0.11800903 0.12333489 0.070559755 -0.11138875
-0.04721832 0.08408435 0.09402873 0.09129544 0.05414351 0.0109150205 0.027020523 -0.024015466
0.1311923 0.054917406 -0.032525923 0.036067504 -0.09689867 -0.094023116 0.0608326 0.13940224
0.13583745 -0.0051653725 0.077732585 -0.022795733 0.032916937 0.012841527 0.03285971 -0.09776594
-0.06139272 -0.12587602 -0.12758778 -0.10772079 -0.10961868 -0.059217352 0.09409382 -0.03806765
-0.06451227 -0.14772056 0.1449555 -0.044225555 0.02510567 -0.0052475883 0.10217225 0.11829103
0.12911347 0.019454544 -0.023529837 0.09978887 -0.009903452 -0.13320962 -0.0872142 -0.1316695
-0.13734652 -0.102367595 -0.09251548 -0.06291367 -0.11246621 -0.037243947 -0.1345883 0.1145883
-0.014614679 0.12511584 0.034185216 0.04995741 0.14058022 0.10584876 -0.102181226 -0.0012430605

lstm.bias_ih_l1 f4 [200]
00000000: cdf6 b1bd f649 d2bd b423 5e3a 8149 003d
00000010: c1ef 20bd ad8c a8bd aa59 07be 70eb 813d
00000020: 365b 9ebd 4ac0 a8bd adfb a43b f77f d13d
00000030: d5fd e2bd 674c 683d 53c7 913d f1c3 e83d
00000040: e18e a33d 8bac a83d 0735 813d ec2f 99bd
00000050: b97b b63c 4128 073e 0d61 993d 87a4 e23d
00000060: cc99 0dbe 0d29 ecbd 8be8 a5bd 87d9 83bd
00000070: 8616 ef3d 44a9 17be a6fa dd3c 463c ff3d
00000080: 9b4c ff3b ca01 f9bd ff31 8d3d 9163 55bc
00000090: 3620 2dbd 9fe5 1fbd 6209 a13d db6a f93c
000000a0: 42f1 793d 7873 0a3d 45eb da3d 19b7 08bd
000000b0: cf0e 873b a174 cfbd 3a4f 49bd f9fd 9dbd
000000c0: 1663 a23d 4ff2 1f3b 333f 58bd 6111 11be
000000d0: e948 d9bd a4d3 91bd 3c95 33bd f2b2 e8bd
000000e0: 0b94 e43d 4bfe 793c 69fa bebc 85fd 963d
000000f0: 79b3 63bc f330 dd3d fe6d 9d3c e80d 723d
00000100: e675 cb3d b42d b83b 219b 92bd 269f 25bd
00000110: 7ec2 97bd 9a56 f6bd 6beb d73c c74c 4dbd
00000120: f087 fbbd c6a7 d839 b832 0dbe 1461 a83d
00000130: 78c6 eaba e52a eabd 34f4 d4bd cb7f 02bc
00000140: 81bf c53c 1e70 e03d c917 babb 3a15 bcbc
00000150: abca 033e 628d 673c eaba d83a f920 8c3d
00000160: b136 54bb 88a1 8d3d 8a54 983d c0b5 d8bd
00000170: db1b df3c 7f1a 0cbe f7c7 803d 6722 d63d
00000180: a337 71bc 3b33 ac3c 58ad debd cf16 1c3b
00000190: 3273 103e b2b3 57bc b994 653d 0eb7 f6bd
000001a0: c798 f0bd c80e 123d 5b81 bbbd b1ce b13d
000001b0: b3ce 013c 884f 46bd d66e 953d 4d2f d3bc
000001c0: 402b ed3c 607e 5ebd 855e 1dbc 0d4b c339
000001d0: 50d2 76bd 5309 253d 1619 7dbd 8c7d 79bd
000001e0: 0684 923d ce2b 36bd 298e 913d 51aa 413c
000001f0: c420 5bbb 6ef6 083d 16ca f63d ff98 11bc
00000200: cb91 0bbe 7347 cabd c95c 99bd 2f12 afbd
00000210: 07f3 e43b deb8 2e3d 1fb6 e63d 5117 90bd
00000220: 4192 f13d 559b 8fbd bb59 ea3d eb95 b83c
00000230: cd69 13bd 6217 3cbd bb2b a4bd 5814 02be
00000240: 39fd ddbd 9a11 83bb 5457 acbd a6eb b3bd
00000250: e390 68bd 0cc4 0ebe 5bcb 6b3d 323f b1bc
00000260: 102c ccbd 6596 60ba a06b 02be 51df f33d
00000270: 9516 febc 110a 1d3d 8281 e4bc 1c38 1e3d
00000280: 836b 0f3d f537 02bd 9e6d 033e 679b 773c
00000290: 9cfe 0cbe 103a f3bd 5a71 c63c dbb6 0a3e
000002a0: 4165 febd bde3 d83a 9dcb cdbd 531e 033e
000002b0: 694c f43d 921e 0e3e 6e9d 783d 8f27 923d
000002c0: c8fa 41bc ca10 bebb 5f93 efbb c00c 4ebd
000002d0: cf9d b13d fba7 c8bd 8d92 32bb 4c9e e73d
000002e0: c7c7 9abd cf5d ae3d 5b05 a63d 59e1 c0bd
000002f0: 545f a9bd c187 3bbd 4a1c a13d 438c 8a3d
00000300: 9e66 c93d e162 e03d 0660 913d 86ab 23bd
00000310: 65b8 d03d 0363 1dbe 7dc4 72bd 17db 123e
-0.08689652 -0.10268013 0.0008473948 0.0313201 -0.039291147 -0.08229957 -0.13217798 0.06343734
-0.07732241 -0.08239801 0.005034885 0.102294855 -0.11083571 0.056713488 0.07118096 0.11365498
0.07986236 0.08236035 0.06308942 -0.074798435 0.022275792 0.1319895 0.07489214 0.11066537
-0.138282 -0.11531267 -0.08100995 -0.064379744 0.11674218 -0.14810663 0.027097058 0.12462668
0.0077911145 -0.12158544 0.068943016 -0.013024227 -0.042267047 -0.039037343 0.07863118 0.03044646
0.061021097 0.033801526 0.10689405 -0.03337774 0.0041216384 -0.10129667 -0.049147822 -0.07714457
0.079290554 0.0024405902 -0.052794646 -0.14166786 -0.1060961 -0.07120445 -0.043843493 -0.11362256
0.111610495 0.015258382 -0.023312764 0.07372574 -0.01389777 0.10800352 0.019217487 0.059095293
0.09934597 0.0056206826 -0.07158495 -0.04043498 -0.07410143 -0.12028237 0.026357373 -0.05012205
-0.122817874 0.0004132373 -0.13788879 0.08221641 -0.0017911931 -0.11433963 -0.103981405 -0.0079650385
0.024139168 0.10958885 -0.005679105 -0.02295934 0.1287028 0.014132829 0.0016535197 0.068422265
-0.0032381231 0.06915575 0.074379995 -0.10581541 0.027234962 -0.13681982 0.0628814 0.104557805
-0.0147227375 0.021020522 -0.108729064 0.0023817306 0.14106444 -0.013165401 0.056050036 -0.12046634
-0.1174789 0.035658628 -0.09155532 0.086820014 0.007922816 -0.04841569 0.07296531 -0.02577939
0.028951287 -0.05431974 -0.009605055 0.00037249216 -0.060259163 0.040292095 -0.061791502 -0.060910746
0.07154088 -0.04447537 0.07107193 0.011820392 -0.0033436278 0.03343814 0.120502636 -0.008886575
-0.13629834 -0.09876909 -0.074884005 -0.0854839 0.006986979 0.04265677 0.112652056 -0.07035697
0.11795474 -0.07012049 0.11442896 0.022532424 -0.03598957 -0.045920737 -0.080161534 -0.12703073
-0.10839314 -0.003999901 -0.08415094 -0.08785181 -0.0567788 -0.13941973 0.05756698 -0.02163658
-0.09969342 -0.00085673324 -0.12736368 0.119078286 -0.031016627 0.03833968 -0.027893785 0.03862773
0.03501464 -0.031791646 0.12834784 0.015112734 -0.13769001 -0.11876309 0.024223972 0.13546316
-0.124216564 0.0016547363 -0.10048602 0.12804537 0.119286366 0.13878849 0.06069701 0.071364515
-0.011839576 -0.0058003413 -0.007311269 -0.050305128 0.08672678 -0.09797665 -0.0027247996 0.113094896
-0.07557636 0.08513986 0.0810649 -0.09417982 -0.082701355 -0.045783762 0.07866724 0.06765034
0.09834026 0.1095636 0.07098393 -0.0399585 0.101914205 -0.15369801 -0.059269417 0.14341389

lstm.bias_hh_l1 f4 [200]
00000000: 6c5f f7bd a860 d5bd 6c4a da3d 3b85 033e
00000010: 8654 ae3c 9414 1dbd 2fbd fb3d fe7f b73d
00000020: 11b6 90bd 7309 6b3c 4613 c2bd a353 f9bd
00000030: 2c0b 6dbd e1ce 39bd 7b4b 09be 4839 373d
00000040: 90a6 f1bc a789 733d 2c26 abbd 709d 2e3d
00000050: 6c6f fa3c f48d 4abd 6a88 7b3d 0ae9 113e
00000060: 52a4 2c3c 4af1 89bd 9465 b0bd 5952 79bd
00000070: 9809 9e3d 1161 1ebd bab8 fcbd a605 013d
00000080: d53a 0e3e 0277 1f3c fcbf debd cd9a de3d
00000090: 05d4 77bc 479a d33d 1d33 013d 0c7e d03c
000000a0: 3481 80bd 040d 62bd 818a 18bb a01f d83c
000000b0: 233e d9bd 251f 03bd db11 883d 5fa6 8a3d
000000c0: 043a 05be d29c 08bd 8001 34bb 05af ee3d
000000d0: 46e6 5e3d c5f5 6abd 5ed2 9b3d 02e8 5cbc
000000e0: 110f 09be 0665 e6bd d151 01bc f190 1bbe
000000f0: 1bc2 b73d d82a ef3d 320f c8bd e543 26bb
00000100: e4bc 9a3d 5434 09be 7d1b fdbd cb0b f7bd
00000110: b998 303d a51b 233d a9c3 9cbd cea8 163e
00000120: 89f8 cc3c 8b38 d8bd 1386 b1ba b9d8 01be
00000130: b161 183d 0949 173e 8dbc b83c 5fb2 9ebd
00000140: e0f8 05be 7fe4 653c 5ab4 aebd a656 4c3d
00000150: 5326 d4bd 549d a5bd 2766 dc3d 6b6d 10be
00000160: 0396 403c 8d9a 273d 7f10 38bd 92d9 3cbd
00000170: 6264 a53d 6f87 8dbd 6446 4bbd ad4d a23c
00000180: b21f 99bd 4bd5 8f3d 4c37 c23d 8bb1 c53d
00000190: 0208 ee3d 514e c23c f9d6 3f3d 41ce dabd
000001a0: 3bf1 c53d 57c9 00be 2558 d8bd a95b 8bbd
000001b0: ade5 c8bc 219f 83bd a255 dfbd b2d7 a0bd
000001c0: bad7 abbd 7f14 c3bd 8c4c bc3d a079 47bd
000001d0: ae46 06be 099e bfbd 0587 c53d 5fa2 ebbd
000001e0: 9e8e 98bc dca7 023e f73b 6fbd b3b1 aebd
000001f0: 7869 3c3d 3fb9 8abd ec46 38bd fcb7 fdbd
00000200: 5ae4 70bd 593c 94bd 0860 ddbd 7c08 c6bd
00000210: 690c fb3d a75e 973d 34ca fcbc 55d7 03bd
00000220: e17f ecbd 3b3e 1a3d 63c4 e03d d640 c9bb
00000230: 62b6 09be 8e45 bd3c d743 6f3d db64 1abd
00000240: bd60 e13d 9e1c 963c da65 673d f1ff e03c
00000250: 9f28 68bd d3a6 403c 8dd0 a03d 9a79 253d
00000260: 3467 bfbd b855 133e 52f5 32bc 2da4 983d
00000270: de67 5c3d 1ecf abbd 8c1e c9bb ee07 b2bd
00000280: 817f c5bd 8a4d a3bd b998 963d 26d2 183e
00000290: 1cfa 89bd c5f0 51bc bab7 903c b707 cdbd
000002a0: d56c 60bd c0d6 943d 0823 4e3d 696a 97bd
000002b0: 60d8 f9bd db81 afbd 7669 ffb8 9902 c83d
000002c0: b340 ba3d d4d4 2d3d e549 50bd 86c8 453d
000002d0: bc82 ea3c b8d3 adbc 3858 d43d fdac 993d
000002e0: 23ac 45bd 9732 853c ea37 9bbd a892 5a3c
000002f0: 74c4 f93d 740c 03be b588 7f3c e6f8 653d
00000300: 3cb0 d9bd 0fc6 adbd 7cd6 e33d a9a4 31bc
00000310: a91c 25bc a61b 5e3c a01a 87ba 2eb5 1abd
-0.12078747 -0.10418826 0.10658726 0.12843792 0.021280538 -0.038349703 0.12291943 0.089599594
-0.070659764 0.014345515 -0.09476332 -0.121741556 -0.057871982 -0.04536331 -0.134077 0.044732362
-0.029498369 0.059457447 -0.0835689 0.042630613 0.030570708 -0.049451783 0.06140939 0.14249054
0.010537224 -0.06735475 -0.086131245 -0.06086955 0.077166736 -0.03866679 -0.12339921 0.031499527
0.1388963 0.0097329635 -0.10876462 0.1086937 -0.015126233 0.103321604 0.031542886 0.025450729
-0.062746435 -0.055188194 -0.0023275914 0.026382267 -0.10607555 -0.032012124 0.06644031 0.06770014
-0.13010412 -0.03335268 -0.0027466714 0.11654476 0.054418825 -0.05736329 0.07608484 -0.013483049
-0.13384654 -0.112497374 -0.007893042 -0.1519201 0.089725696 0.11678094 -0.09768523 -0.0025370058
0.07555559 -0.13398868 -0.123587586 -0.12062796 0.043114398 0.039821286 -0.07654507 0.14712831
0.025020855 -0.1055766 -0.0013543986 -0.1268033 0.03720254 0.14773954 0.022550846 -0.07748865
-0.1308322 0.0140315285 -0.08530493 0.049887322 -0.10358872 -0.080866486 0.107616715 -0.1410424
0.011754516 0.040918875 -0.044937607 -0.04610593 0.08075787 -0.069105975 -0.049627677 0.01981243
-0.074767485 0.07023104 0.09483203 0.09653004 0.11622621 0.023718985 0.046835873 -0.10683871
0.09665152 -0.12576805 -0.10563687 -0.06804592 -0.02452358 -0.06426836 -0.10905005 -0.078536406
-0.08390756 -0.09525394 0.09194288 -0.048699975 -0.131129 -0.09356315 0.096448936 -0.11505579
-0.018622693 0.12759346 -0.058406796 -0.08529987 0.04599902 -0.06773614 -0.04498951 -0.12388608
-0.058811523 -0.07238073 -0.10809332 -0.09669587 0.122582264 0.073911004 -0.030858137 -0.03218778
-0.115478285 0.037657004 0.10974958 -0.0061417622 -0.1344848 0.023104455 0.058414306 -0.03769384
0.110047795 0.018324193 0.056493618 0.027465792 -0.056679364 0.011758524 0.07852278 0.04039917
-0.09345856 0.14388168 -0.010922747 0.07453189 0.053809993 -0.08389114 -0.0061376747 -0.08692919
-0.0964346 -0.07973774 0.07353348 0.14923915 -0.06737158 -0.012813752 0.017665733 -0.10011237
-0.05479129 0.07267523 0.050326377 -0.07393343 -0.121994734 -0.0856969 -0.00012178991 0.097661205
0.09094372 0.042439297 -0.05085172 0.048286937 0.028626792 -0.02121912 0.10368389 0.07503698
-0.048259865 0.016259475 -0.07579024 0.01334063 0.121956736 -0.12797719 0.015596558 0.05614557
-0.10629317 -0.08485042 0.11124894 -0.010842481 -0.010077634 0.013556397 -0.0010307617 -0.037770443

fc.weight f4 [1, 50]
00000000: d4f1 de3d 8a76 eabd aa13 593d bb20 0ebe
00000010: 1a85 153e 3c90 10be 1af1 8a3d 0417 c5bd
00000020: 5a3e 1dbc 5b7f 963d c5e9 03bd e143 6e3d
00000030: 89b1 2dbc f4a6 89bd 5e8a 3b3a e159 e83c
00000040: e4e2 40bd 6253 16bd 5b01 9b3c 2eb3 083d
00000050: fad2 9c3d 5956 553d 2ce6 833d 20db 83bd
00000060: fc8f bf3d ea4b 81bd f51a 71bc 611c a2bd
00000070: ee41 e7bd c1b7 b33d 5e3d b13c d200 a8bc
00000080: cc49 073e c74d 9ebd ceee e9ba ad1e 0dbe
00000090: a641 fbbc 0fd4 b63d 90f3 72bd f4c6 923c
000000a0: faf6 e8bd ed76 10be 3b69 f6bd 2d2c 78bd
000000b0: 17bb 2f3c f6d4 003e 49c6 443d 4862 92bd
000000c0: afe3 68bd 7e88 e4bd
0.10885969 -0.11448391 0.05299727 -0.13879673 0.14601555 -0.14117521 0.06784268 -0.096235305
-0.009597385 0.0734851 -0.032205362 0.058170203 -0.01060141 -0.06721297 0.0007154102 0.02836317
-0.04709138 -0.036700614 0.018921545 0.033374004 0.07657428 0.0520843 0.06440386 -0.06438279
0.09353635 -0.063133076 -0.0147159 -0.07915569 -0.11291872 0.08775283 0.021635707 -0.020508204
0.13211745 -0.077296786 -0.0017847659 -0.13781233 -0.030670952 0.08927166 -0.05931431 0.017917134
-0.11375232 -0.14107867 -0.1203179 -0.060589004 0.010725758 0.12581238 0.048040662 -0.07147652
-0.05685776 -0.11158846
